개인프로젝트/test.pth (torch, 90549 bytes, 13 tensors)

conv1.weight f4 [32, 1, 64, 1]
000000 a6 04 28 3d 9b 58 13 be ae 3f 4f be 97 98 25 3d
       0.041020058 -0.14389269 -0.20239136 0.040428724
000010 7f ed 9d bc d8 0e 95 3d 20 59 2b 3e a3 18 33 3d
       -0.019278286 0.07278222 0.16733217 0.043724667
000020 1f aa 39 be 78 10 17 bd 45 fe 89 3d 38 33 9f bd
       -0.18131302 -0.03688094 0.06737951 -0.07773441
000030 00 37 78 3c a0 c6 ef 3b 12 61 c0 bd 19 aa 1e 3d
       0.015149832 0.007317379 -0.09393515 0.038736437
000040 8b b1 17 3e 4c e0 e7 3d 41 a8 5c 3d d8 69 32 38
       0.14813821 0.11322078 0.053871397 4.253708e-05
000050 dd b8 22 be c7 f4 07 3d 6d 64 18 3e 2a 62 d8 3c
       -0.15890832 0.033192422 0.1488206 0.026413996
000060 d3 98 3c 3d 1e fe 22 3e 3c fe 9d 3b 81 04 56 bd
       0.046044182 0.1591725 0.004821567 -0.05225039
000070 b4 7d 33 bd f7 bb 02 be 74 21 0b bd eb bd a5 bd
       -0.04382105 -0.12767015 -0.03396745 -0.080928646
000080 a1 05 9b 3d 8d 91 82 3e 2e d1 d9 3c a2 54 b8 bc
       0.07569433 0.2550167 0.026589002 -0.022501294
000090 8c 01 78 bd 52 11 ae 3b bb c2 ce bc 77 fd 21 bd
       -0.06054835 0.0053121233 -0.02523934 -0.039548364
0000a0 d2 0d f7 bc 50 cc ca bd db 92 88 3c a0 9d f3 bd
       -0.030157957 -0.09902251 0.016671589 -0.11895299
0000b0 48 86 4d 3d 5f 52 87 3d f6 36 21 3e ad 92 5d 3e
       0.05017689 0.06607508 0.15743622 0.21637984
0000c0 93 71 46 bd de eb 19 3b f3 b2 6d bd 6e 0d 5e be
       -0.048448157 0.0023486535 -0.058031987 -0.2168481
0000d0 31 f7 0e 3d 0a 62 76 3c e5 0c 49 bd eb b0 76 3d
       0.03490371 0.015038023 -0.049084563 0.060227316
0000e0 da 4e a7 bd d7 ec f9 3d f2 c1 10 3d 87 bd f6 3d
       -0.081693366 0.12203377 0.03534121 0.12047868
0000f0 12 6f 51 ba 7f d5 2e 3d 73 34 e3 bd 65 83 e5 bc
       -0.0007989268 0.042684074 -0.11093988 -0.028016755
000100 40 ec a3 3d 01 8a dc 3d f2 c4 b3 bc 0a fa e1 bd
       0.080040455 0.1076851 -0.021944497 -0.11034019
000110 18 83 89 bd a7 1e d6 bd ef 3f ea 3d f2 19 d5 bd
       -0.06714457 -0.10455065 0.114379756 -0.10405339
000120 c1 ac a2 3d 27 bf 2b bd 34 16 30 3e 83 48 29 bd
       0.079431064 -0.041930344 0.1719597 -0.04132892
000130 ba dc 42 bd 0b f2 d7 3d 62 a1 e4 3c 24 19 9a bd
       -0.047573783 0.10544213 0.027908985 -0.075243264
000140 c2 06 83 3c b5 2d 1b bd 07 3d 85 3c 74 70 89 3c
       0.015994433 -0.037885386 0.016264452 0.016777255
000150 48 03 9c 3c d1 2b 9f 3d 86 5b 2f 3c ce 3d 9d bd
       0.019044533 0.07772029 0.010702973 -0.07677804
000160 a8 f1 46 be 60 72 67 3d 0f 60 c9 3d f6 74 ba bd
       -0.19428122 0.05650556 0.09832775 -0.0910434
000170 7d 0e 9e bd d8 32 c8 bb 5d 94 1b be 99 59 6f bb
       -0.07717607 -0.0061095767 -0.15193315 -0.003652191
000180 fc bc 27 bd 27 e4 30 3d 91 7b d9 bd 94 d2 a9 bd
       -0.040951714 0.043186333 -0.106192715 -0.08292118
000190 d5 d3 1d bd 33 4b 97 3c 57 e7 85 3d 94 ca 0b bd
       -0.038532097 0.018468475 0.06538265 -0.03412874
0001a0 1a b1 c4 bd 90 3b 0a bd 69 75 30 3e 36 85 f1 3d
       -0.09604092 -0.03374821 0.17232288 0.11792986
0001b0 96 38 dc 3d 79 4f 22 be e0 de 4b be 62 cb 23 3d
       0.107529804 -0.15850629 -0.19909239 0.039988883
0001c0 68 db 4f bd 24 6c c7 3c 67 90 72 3e 44 40 06 bd
       -0.05074635 0.024343558 0.23687898 -0.032776132
0001d0 2a 07 f3 bb 55 47 39 3d 34 1a 8a 3d bb 81 ae 3d
       -0.0074166255 0.045234043 0.06743279 0.08520838
0001e0 a6 2f d5 3d 62 f6 12 be b8 0d da bd 7d 7d 54 3d
       0.10409479 -0.143518 -0.10647148 0.051877487
0001f0 03 cd 34 3e e1 ec 78 bd 51 73 87 3d 6b bd a6 3d
       0.17656331 -0.06077278 0.06613792 0.08141597
000200 a8 9a bb 3c 66 02 3e 3e 66 7d fe 3d 6c b5 85 3d
       0.022900894 0.18555602 0.124262616 0.06528744
000210 db 38 6a be 31 d9 02 be a6 89 d3 bd 9b 90 b4 3d
       -0.22873251 -0.12778164 -0.10328989 0.08816644
000220 68 5a 3e 3e 38 2e d5 3c 5d 77 f3 bd 33 b2 1e 3d
       0.18589175 0.026023015 -0.11888001 0.038744163
000230 7f e9 11 3d a5 e3 9e 3d 72 0d 25 bd be 67 c0 bd
       0.03562307 0.077582635 -0.040296026 -0.09394787
000240 50 02 74 3a 6b 7d c1 bd 03 2e ea bd b5 d7 d7 3d
       0.0009308206 -0.0944775 -0.11434557 0.1053919
000250 d9 c5 9c bc dc 5a d6 3d 45 63 43 3d 87 6a 09 3e
       -0.01913731 0.10466549 0.047702093 0.13419543
000260 5d 01 4e 3d 00 72 6a bd 59 88 c0 3d 58 72 31 bd
       0.05029427 -0.057237625 0.09401006 -0.043321937
000270 a2 e9 83 3c 73 e5 91 3d 0a e8 3d be cb 0e cb bc
       0.016102616 0.07123842 -0.18545547 -0.024787327
000280 e2 35 30 bd 27 16 91 3c b4 b7 e7 3d c6 51 11 bd
       -0.043020137 0.017710758 0.113143355 -0.035478376
000290 85 8a 5f 3e 52 6f c3 bd 24 4e 16 bd 91 f9 4c 3e
       0.21830185 -0.09542717 -0.036695614 0.20017077
0002a0 cd f1 d7 bc 03 e3 19 3e a7 65 86 3d 5e 42 09 bd
       -0.026360417 0.15028004 0.065623574 -0.03351056
0002b0 74 57 09 be 03 ae d5 bd b1 ed aa 3d c3 57 f7 bd
       -0.13412267 -0.10433581 0.08346117 -0.12077286
0002c0 99 1c fb 3d 04 3b 1c bd ca 59 fe ba ae 1e dd bd
       0.12261314 -0.03814222 -0.0019405421 -0.10796867
0002d0 5a 78 a4 3d 0c ed 96 bc 3d 6c b6 bd 36 04 85 bb
       0.08030768 -0.01842358 -0.089073636 -0.00405934
0002e0 5c 53 58 3d d0 24 f4 3d 6c cc 0e 3d a9 77 a0 3d
       0.052813873 0.11921084 0.03486292 0.07835323
0002f0 fe 2b 5e bc 4a a2 5b bd a8 b1 7b 3d f7 fe 88 be
       -0.013560293 -0.053621568 0.061448723 -0.26757023
000300 85 58 53 3e 21 ba 21 3e e5 bb a5 bd 6d ea 03 bd
       0.20639236 0.15793659 -0.08092479 -0.032205988
000310 e5 37 28 3e b9 fd 45 bd 8a 5a bd bd 1c b3 52 be
       0.16427572 -0.048337672 -0.092457846 -0.20576137
000320 05 0f 8d bd 68 05 ce 3d f4 c8 85 b8 2c eb 4a 3d
       -0.068876304 0.10059625 -6.379365e-05 0.049540684
000330 57 18 2b 3e 46 9a 08 bd c8 a0 1e 3e 19 29 08 3e
       0.16708504 -0.03335025 0.1549102 0.13296928
000340 1b df 83 bc e6 bf c3 bd ae b6 fb 3d d5 2b 52 3d
       -0.016097596 -0.09558086 0.12290703 0.051311333
000350 d0 6a 14 3e 99 d0 5a 3b a3 dd af 3c b7 d5 0f be
       0.1449387 0.0033388494 0.02146799 -0.1404637
000360 b3 43 60 3c 67 ae 48 be 1a 58 73 bd 26 5e c5 bd
       0.013688016 -0.19597779 -0.059410192 -0.09637098
000370 c5 9a 82 bd 24 30 89 3d a8 cd 8e 3d 68 80 12 bd
       -0.06377176 0.06698635 0.069728196 -0.03576699
000380 64 9d 96 bc 27 f5 d4 b7 c6 ff 16 3e a3 b1 f3 3d
       -0.018385597 -2.5386527e-05 0.14746007 0.11899116
000390 7d 54 5d 3d 2e c5 03 3c 80 cd bc bc 15 1c 3e bd
       0.054035652 0.008042617 -0.023047209 -0.0464135
0003a0 b6 4c a6 3c 71 4c 2a be 52 68 52 be d0 38 2f 3e
       0.02030025 -0.16630723 -0.20547608 0.17111516
0003b0 3d 41 cb 3c 16 b0 2c 3e 0a 0e ba ba b8 1e 89 3d
       0.024811381 0.16864046 -0.0014194858 0.06695312
0003c0 b2 2e 8e 3d 88 85 82 3b 8f 4b 42 3d 50 fd 59 3d
       0.069425 0.0039832033 0.04743534 0.053220093
0003d0 6b e2 50 3d 85 f7 b9 3c 20 f8 5e 3c ac 8f e5 bd
       0.05099718 0.022701034 0.013608962 -0.11209044
0003e0 e5 60 f6 bd 3a 65 ea bc 01 03 98 3c fc 87 cb 3c
       -0.120302 -0.028612722 0.01855612 0.024845116
0003f0 97 52 bc 3c 48 bf 46 3d 7d 99 12 be 84 b4 a5 3d
       0.0229886 0.048522264 -0.14316364 0.08091071

conv1.bias f4 [32]
000000 53 ca 4a bd 3b c0 bf 3d 69 f7 99 bd 08 d9 82 bd
       -0.049509358 0.09362837 -0.07517893 -0.06389052
000010 0b 29 65 3d 0e 20 91 3d 7f 43 00 3e 71 e4 d3 3d
       0.055947345 0.07086192 0.12525748 0.10346306
000020 f3 05 02 bd 60 50 b2 3d e3 26 f0 bc 30 02 9b bd
       -0.031743955 0.087067366 -0.029315418 -0.075687766
000030 c9 f5 b4 3c f4 d3 e8 3d 4f c6 ef 3d 51 1e 08 3d
       0.022089856 0.11368552 0.11707746 0.033232037
000040 fc 1f b3 bd 64 d1 da 3d d8 42 c2 bd 57 70 80 bd
       -0.08746335 0.10684469 -0.09485406 -0.06271427
000050 c5 01 8d 3d bb 38 8e bb 7f eb b6 3c d1 b3 10 be
       0.06885103 -0.004340259 0.02232909 -0.14131095
000060 fe 42 f3 bd 3b 4f e6 3d 70 7f 05 bd 0b c6 4f 3c
       -0.11878012 0.11245581 -0.032592237 0.0126814945
000070 17 36 d3 bc 44 49 e3 bd 20 fc ff bd c5 15 d3 3c
       -0.025782628 -0.11097959 -0.12499261 0.025767216

conv2.weight f4 [64, 32, 1, 9]
000000 5b 7f ac bd 48 13 2d bd a8 70 9e 3c 13 90 24 3d
       -0.08422729 -0.042254716 0.019340828 0.040176462
000010 1f 02 e2 3c c7 0b 90 bd d6 2b 5f bc 83 2e bd bc
       0.027588902 -0.07033496 -0.013621291 -0.023093468
000020 b4 68 60 3c 1c 57 b7 3b 07 92 3c 3d 05 d3 0b 3e
       0.013696838 0.005595101 0.0460377 0.13654716
000030 6d a4 a8 3d 43 bc 0c bc 6d 0a 9c 3d da d7 cd 3c
       0.08234487 -0.008589807 0.07619176 0.02512734
000040 c8 14 5e bb 04 8e fa 3c 21 a9 41 bd e5 ce 49 bd
       -0.0033886898 0.030585296 -0.047280435 -0.049269576
000050 14 c5 2a 3d ea d0 3d 3d 3a 7b b2 3c af 53 06 3d
       0.041691855 0.046341814 0.021787275 0.03279465
000060 ae aa f1 bc 50 6b 4f bd 6c 1f 62 bd 7e b8 b0 bd
       -0.029500332 -0.05063945 -0.055205747 -0.08628939
000070 6c 30 9e bd 3e 36 c2 bb 20 bc 05 3d 68 73 ea bd
       -0.077240795 -0.0059268763 0.032650113 -0.11447793
000080 cd a8 f7 bd e3 76 cf bd d1 a5 8f bd 0a 25 30 be
       -0.12092743 -0.10130098 -0.07014049 -0.1720163
000090 98 c4 e4 3c d7 5d 85 3c 40 77 af bd a8 fc c7 bb
       0.027925774 0.016280098 -0.08567667 -0.006103117
0000a0 b9 b5 a8 3c e3 a4 f8 bc ff 32 fa 3c 73 58 fc bc
       0.020594465 -0.030352062 0.030541895 -0.030803895
0000b0 53 ff a6 bb 17 1a ed bc 5e d6 85 bd 38 b2 10 3c
       -0.005096355 -0.028943105 -0.06535028 0.008831553
0000c0 93 27 5f bd a5 58 77 bd 4e d8 2a bd 50 fb 87 bd
       -0.0544811 -0.060387272 -0.04171019 -0.06639731
0000d0 65 59 80 bd cc 43 1a bd b1 fc f6 3d c0 60 2e 3d
       -0.06267051 -0.037662312 0.12059916 0.042572737
0000e0 fb 9d 93 3a b0 4a 93 3d 3e 47 76 3d 38 01 9e 3d
       0.0011262292 0.0719198 0.060126536 0.07715076
0000f0 d2 59 7f 3d 16 b1 45 3d 69 3a 20 3e 86 e0 d6 bc
       0.06234152 0.048264585 0.15647282 -0.026230108
000100 74 5c 04 bd a4 93 32 3c ca cf 99 bc 8a b5 52 bd
       -0.032314733 0.010899458 -0.01877584 -0.05144266
000110 85 8b f9 bd e8 a2 22 bd 59 64 e6 bd 7a 3f 80 bc
       -0.12184814 -0.03970614 -0.112496085 -0.015655268
000120 57 db 0f bd fe b9 12 3d ea f4 1d 3a fb 16 88 3b
       -0.03512129 0.035821907 0.000602557 0.00415313
000130 d1 af b4 3d 6e 7c 8a 3c 84 03 a6 3d fd 7f 12 bd
       0.08822597 0.016905036 0.08106139 -0.03576659
000140 81 f6 5a 3d dc 8c c8 3d dc 77 be 3d 8d 38 98 bd
       0.05345774 0.09792492 0.09300205 -0.07432661
000150 5e d9 3d bd b8 b4 18 bb 81 9c 87 3c 9e a6 13 bd
       -0.046349876 -0.0023301076 0.016554119 -0.03604757
000160 1d 9e 25 bd 45 27 a2 3d 01 07 10 3d ad 4e 15 3d
       -0.04043399 0.07917646 0.03516293 0.036451984
000170 33 5a 0d bd 75 9d 0a be 08 20 49 bb 33 f0 3a bc
       -0.03450985 -0.13536628 -0.0030689258 -0.011409807
000180 fd e1 89 bc ba 49 77 bc 19 ea d4 bc 05 6c 1e bd
       -0.016831392 -0.015093261 -0.025990533 -0.038677234
000190 64 32 46 bc 40 95 4e 3d 71 1e 3e bd 75 6d 4c bd
       -0.012096975 0.050435305 -0.04641575 -0.049909074
0001a0 2b cc 67 3d 45 62 cc 3c 3f 59 41 bd 1b 88 c2 3c
       0.056591194 0.024949202 -0.047204252 0.02374654
0001b0 31 c0 28 3a db c7 92 3d b1 66 16 3c f2 94 58 bc
       0.000643733 0.07167026 0.009179757 -0.013219105
0001c0 bb f3 6b bc 53 f5 bc 3d af 57 9e 3c d8 e9 60 3c
       -0.014401372 0.092264794 0.01932892 0.013727628
0001d0 64 7f b9 bd 3c b5 bd bd a8 67 d2 bd 11 94 8f bd
       -0.09057501 -0.09263083 -0.10273677 -0.07010663
0001e0 44 d1 1b bd f6 d0 c8 3c 1a 06 0c bc b7 17 fb bb
       -0.038041368 0.024513703 -0.008546377 -0.007662739
0001f0 4a 23 89 bd d8 b1 c8 bd b9 b5 35 bd 98 b4 ef bc
       -0.06696184 -0.09799546 -0.044362757 -0.029260918
000200 01 1c 57 bd bd e5 f1 bc cb bd 0e 3d 7e e7 41 bc
       -0.05251694 -0.029528493 0.03484897 -0.011834977
000210 a7 f1 5f 3c 17 d5 09 bd 19 a6 a5 3c 0b 95 85 bd
       0.013668454 -0.033650484 0.020220803 -0.06522568
000220 a9 f7 b8 3c 76 40 af 3c a8 74 30 3d 90 01 27 bc
       0.022579031 0.021393042 0.043080002 -0.010193244
000230 40 dc 33 3d 42 11 74 bc 20 d2 19 bd 90 8e 3c bc
       0.04391122 -0.014896693 -0.037553906 -0.011508599
000240 1f 88 93 bc 75 fc 69 3d fc 52 31 3d 17 4d 62 3d
       -0.018009244 0.057125527 0.04329203 0.0552493
000250 d6 d4 92 3c fb 9b b3 3d 00 19 46 3d f2 92 4a bb
       0.017923754 0.08769985 0.048363686 -0.003091034
000260 5b 60 45 3d f5 e7 8c 3c 13 88 5f bd 9a ec 8b bc
       0.048187595 0.01720045 -0.05457313 -0.017080594
000270 fb dd fc bc 04 b0 38 bb 2a b4 6f 3c f0 58 32 bd
       -0.030867567 -0.0028181085 0.014630357 -0.04354185
000280 c7 99 85 3b 3a 36 00 3d 8f e5 7e 3d c5 12 8b 3d
       0.0040771696 0.031301714 0.062230643 0.067906894
000290 46 68 c7 3d 23 fc 21 3e 26 ce 12 3c 94 84 13 3e
       0.097366855 0.15818839 0.008960282 0.14406043
0002a0 cc b3 08 3d 93 fc ef 3b 96 e5 bc 3d 8b e2 72 bd
       0.033374593 0.0073238104 0.092234775 -0.05929808
0002b0 fc 70 18 bc a8 5c 07 bd 17 e0 cb 3b 59 c7 1b 3a
       -0.009304281 -0.03304735 0.006221782 0.0005942486
0002c0 98 08 8a bd cd 8c 99 bd a0 ff 78 bd 12 12 aa 3c
       -0.067399204 -0.07497559 -0.060790658 0.02076057
0002d0 ee 33 af bd 06 ad d7 bd 27 48 8f bc 8b 0d af 3c
       -0.08554827 -0.105310485 -0.01749046 0.021368762
0002e0 5c 36 a3 3a a1 49 82 39 37 9c 57 bd 15 74 21 bd
       0.0012452113 0.0002485039 -0.052639212 -0.039417345
0002f0 73 47 2c 3d f6 9d db 3d ff df df 3d bf f2 62 3c
       0.042060327 0.10723488 0.10931396 0.0138518205
000300 bd 30 f3 3c 21 5f 7f 3d 08 f8 37 bd 8e 30 a7 3c
       0.029686326 0.06234658 -0.044914275 0.020408895
000310 25 4e c5 bc e2 2d 39 bd 78 cf 9e 3d f4 50 68 3d
       -0.024085114 -0.045209773 0.07754415 0.056717828
000320 53 48 8b bc 8a d4 90 3d 8f 76 cf 3c 0f 05 97 3d
       -0.01700226 0.070717886 0.025325088 0.07374012
000330 9d 9b 04 3c 13 4e 78 3d d3 f6 3b 3d c7 91 2d be
       0.008093742 0.060621332 0.045889687 -0.16950141
000340 7d a7 3b be e8 a5 f8 bd 37 06 6e bd 7e 30 81 bd
       -0.1832561 -0.12141019 -0.058111396 -0.06308077
000350 fc 30 51 bd 26 33 85 bd e2 80 33 be 22 4d e7 bd
       -0.051072106 -0.065038964 -0.17529634 -0.11294009
000360 af d3 d2 3d 18 c5 b1 3d b1 bd 3a bd a3 14 95 ba
       0.10294282 0.08680171 -0.04559106 -0.0011373948
000370 20 0c 2c bc ac 48 5f 3d 27 db 49 3d 73 b1 73 3c
       -0.010500938 0.054512665 0.049281266 0.01487385
000380 08 6a b3 bc d8 69 d1 bc a1 f5 4c 3d 3a b5 4a 3c
       -0.021901146 -0.025563166 0.050038937 0.012372309
000390 80 d4 17 bd 2a 16 69 3d 86 a2 a0 3d ae 1f b4 3c
       -0.03706789 0.056905903 0.07843499 0.021987762
0003a0 a3 84 2b bc 00 b9 4a bd b4 3d e9 bc a4 1e 95 bd
       -0.010468635 -0.049492836 -0.028471805 -0.07281235
0003b0 e5 cd 62 bd 9c fc e5 bd 2c 37 12 bd cf c0 91 bd
       -0.055372138 -0.11229822 -0.035697147 -0.071168534
0003c0 35 b5 e9 bc ae 7f 0c be 3e c6 a9 bd fd a6 d6 bc
       -0.028528789 -0.13720581 -0.08289765 -0.026202673
0003d0 7e 07 86 ba 24 9c af bd d2 d3 24 bc ee 56 23 bd
       -0.0010225622 -0.08574703 -0.0100602675 -0.039877824
0003e0 f3 b8 3f 3d 73 67 9b bd 18 c4 e6 bd a9 61 78 bd
       0.04680724 -0.07588091 -0.11267871 -0.06064001
0003f0 80 38 18 be 7b cd 16 be 92 9c ea bd 65 da 47 bd
       -0.14865303 -0.14726822 -0.11455645 -0.04879226

conv2.bias f4 [64]
000000 a3 4d ef 3c 26 7b 4f 3d 6d 23 04 bd e6 a2 83 bc
       0.029211825 0.050654553 -0.032260347 -0.016068887
000010 b0 25 4b bb bb 5d bd bc f2 78 39 3d 3b 39 03 bd
       -0.0030997805 -0.023115983 0.045281358 -0.032037
000020 4e 35 13 bd 99 c6 0b 3b 6a bf 3a bd f2 c6 31 bd
       -0.035939507 0.002132809 -0.045592703 -0.04340262
000030 82 06 3f bb 58 fa 63 3d 5c c9 ec 3c aa 6a d7 3c
       -0.0029148166 0.05565867 0.02890461 0.026295979
000040 43 f3 66 bd 50 9a 11 3c 40 0d 8d bc 01 9f 8a 39
       -0.056384336 0.008886889 -0.017218232 0.00026439878
000050 39 bc d5 bc 51 3c 3e bc c3 15 cd 3c 76 aa 03 bc
       -0.026090728 -0.01161106 0.02503479 -0.0080362465
000060 78 4f 8c 3d 73 d6 b2 3c 48 99 fe 3c 30 b9 23 bd
       0.06851095 0.021830773 0.03107895 -0.03997153
000070 cb d9 59 3d e8 43 4f bd 69 0a 26 bc f0 11 c6 3c
       0.05318622 -0.05060187 -0.010134318 0.024178475
000080 dc 20 24 bd 06 4d a5 3b 1a 82 04 bd 6a 8f 3c 3d
       -0.0400704 0.0050445823 -0.032350637 0.046035208
000090 96 d7 27 3d a6 36 72 38 98 ea 2c 3d 77 48 de 3c
       0.040977083 5.774819e-05 0.042215914 0.027134163
0000a0 b8 25 fc 3c fd d6 9c 3b 07 5b 0c 3a 63 37 72 3b
       0.030779704 0.004786371 0.00053541403 0.0036959283
0000b0 17 b3 3c 3c ba 8f 82 bd 5a 70 dd 3c a6 25 84 bb
       0.011517308 -0.0637507 0.027031112 -0.0040328084
0000c0 1f ae ef 3a 3d bb eb bc b2 be 86 3c 5f 75 ad 3c
       0.0018286145 -0.028775806 0.016448352 0.021174131
0000d0 93 26 d3 bc ea 52 34 3d ed 06 d1 3c 71 53 34 3d
       -0.02577523 0.044024386 0.025515998 0.04402489
0000e0 8f b9 38 3d 8e c9 73 bd c5 d0 3a 3d 7f 39 67 3d
       0.045098837 -0.05951839 0.045609254 0.056451317
0000f0 2d 84 4c 3d 46 47 76 bd 87 b4 15 bc df 76 ed bc
       0.04993074 -0.060126565 -0.009137279 -0.028987346

batch1.weight f4 [32]
000000 83 b9 86 3f c3 27 71 3f 2e 55 51 3f a3 50 62 3f
       1.0525364 0.94201297 0.817706 0.8840429
000010 d1 f2 6c 3f 3d 4b 61 3f 49 7a 67 3f a7 a9 7f 3f
       0.9255801 0.8800543 0.9042097 0.99868244
000020 ff 66 51 3f 8d 28 5e 3f 25 89 73 3f 1f cc 6f 3f
       0.81797785 0.86780626 0.9513114 0.9367084
000030 bb b4 73 3f 05 29 57 3f d0 19 78 3f 90 8b 5e 3f
       0.9519765 0.84046966 0.96914387 0.86931705
000040 8b 8d 61 3f c9 6c 5e 3f 70 51 63 3f 24 19 64 3f
       0.881066 0.8688474 0.8879614 0.8910086
000050 bf 2c 6d 3f b7 61 6e 3f 41 d1 66 3f 07 4d 73 3f
       0.926464 0.9311785 0.90163046 0.9503941
000060 eb 2b 67 3f b3 55 40 3f c4 83 4c 3f cf cf 5a 3f
       0.9030139 0.75130767 0.7988856 0.8547334
000070 42 26 66 3f 3a bb 5c 3f 62 05 64 3f 32 d1 6e 3f
       0.89902127 0.86223185 0.89070714 0.93287957

batch1.bias f4 [32]
000000 36 5d e9 be 59 b5 aa be 8e e0 a4 be 6f 1d eb be
       -0.45578927 -0.33341482 -0.32202572 -0.45920894
000010 26 a9 aa be 00 42 d4 be c7 05 c0 be 41 d7 9f be
       -0.33332175 -0.41456604 -0.37504408 -0.31218913
000020 ee 04 0b bf a5 af f4 be 08 1e bd be b4 c5 ea be
       -0.543044 -0.47790256 -0.36936975 -0.4585396
000030 96 1b 0f bf 04 cf bc be d0 3b ee be 6b f3 00 bf
       -0.5590147 -0.3687669 -0.46530008 -0.50371426
000040 42 17 0c bf 35 75 d9 be 1c a1 16 bf e6 28 dd be
       -0.5472299 -0.42472234 -0.58839583 -0.43195266
000050 50 b5 b5 be c2 54 ba be 14 6b 0c bf 25 aa ff be
       -0.35489893 -0.3639279 -0.5485089 -0.49934497
000060 90 66 e8 be c5 61 9c bd aa 3a 77 be 7b 90 89 be
       -0.4539075 -0.076358356 -0.24143472 -0.26868042
000070 c0 86 d0 be c0 1f f6 be f9 f0 ba be 17 c1 c9 be
       -0.40727806 -0.48071098 -0.36511973 -0.39405128

batch1.running_mean f4 [32]
000000 41 23 05 c1 d2 ce 69 c1 a7 01 60 c0 01 21 d6 c1
       -8.321107 -14.612993 -3.5001009 -26.766115
000010 6d ad 6f c1 c3 9c 29 c1 3f 52 18 c1 03 e1 78 41
       -14.97984 -10.600772 -9.52008 15.5549345
000020 2e b4 12 41 e1 c4 9c c1 55 89 77 c1 fc 04 88 c1
       9.168989 -19.596132 -15.471028 -17.002434
000030 ab de 9a c0 bf f6 d3 c0 7b 35 d0 c0 a4 2c a6 c1
       -4.839681 -6.6238704 -6.5065284 -20.771797
000040 9d bc a0 c1 0d 08 90 bf 61 ac b0 3f 13 e7 ea bf
       -20.092096 -1.1252457 1.3802606 -1.8351768
000050 91 0a 20 c1 2c 6c 54 c0 89 e9 3f c0 86 87 35 41
       -10.00258 -3.3191023 -2.9986289 11.345587
000060 3a 00 29 c1 d7 d6 b5 41 f6 92 30 c1 56 18 e2 40
       -10.562555 22.729902 -11.035879 7.0654707
000070 55 6a ca c1 a5 98 00 c1 63 ab 79 c0 ec bb 0b c1
       -25.30192 -8.037267 -3.9010856 -8.733379

batch1.running_var f4 [32]
000000 70 af 56 42 ac 04 44 42 6a ba 49 42 a8 b8 d5 42
       53.671326 49.004562 50.432045 106.86066
000010 d5 fd 78 42 84 8a 8f 42 02 02 72 42 4f 22 ad 42
       62.247883 71.77054 60.50196 86.56701
000020 c8 24 75 42 f4 6e a1 42 aa ec 5f 42 a5 1a dc 42
       61.28592 80.716705 55.981117 110.05204
000030 1d b6 1f 42 39 20 44 42 d2 30 42 42 d1 cd 83 42
       39.927845 49.031467 48.547676 65.901985
000040 89 7f 84 42 4e 5e 42 42 8f ee 61 42 d5 6f 5a 42
       66.24909 48.592094 56.482967 54.60921
000050 b2 93 8f 42 92 de 7b 42 7d ee 79 42 59 97 3e 42
       71.78847 62.967354 62.4829 47.6478
000060 9a 35 3e 42 4b 46 08 43 96 59 90 42 e4 2c 91 42
       47.552345 136.27458 72.17497 72.58768
000070 53 92 d3 42 3a ad 1e 43 4f 05 5a 42 48 71 81 42
       105.78579 158.67667 54.505184 64.72125

batch2.weight f4 [64]
000000 c7 b7 8a 3f 34 16 89 3f 97 c5 88 3f fb b2 8f 3f
       1.0837334 1.0709901 1.06853 1.1226496
000010 b4 af 95 3f 23 34 8f 3f 35 aa 9d 3f e3 ff 8e 3f
       1.1694245 1.1187786 1.2317568 1.117184
000020 22 bb 88 3f f5 6b 8a 3f 3e 18 96 3f fa 79 88 3f
       1.0682108 1.0814196 1.1726148 1.0662224
000030 68 db 8e 3f 71 58 87 3f 1f 9c 88 3f fd 69 8d 3f
       1.1160707 1.0573865 1.0672644 1.104797
000040 91 76 b8 3f 6e 01 93 3f ba ce 97 3f b2 aa 87 3f
       1.4411184 1.1484811 1.1859963 1.0598967
000050 ad 0e 90 3f 27 9e a2 3f 4c ab 92 3f 52 6c 94 3f
       1.1254479 1.2704514 1.1458526 1.1595557
000060 2f db ac 3f 1d 7b 8a 3f 81 2c ae 3f 3f 9c 96 3f
       1.350439 1.0818821 1.3607332 1.1766433
000070 3e 44 9c 3f 01 ed 87 3f 92 08 84 3f 54 4b 93 3f
       1.2208326 1.0619203 1.0315115 1.1507363
000080 08 4f 8e 3f 3e 41 8a 3f e7 a9 89 3f 2b db df 3f
       1.1117868 1.080116 1.0754975 1.748876
000090 87 a5 86 3f af ab 88 3f 31 ca 85 3f 0b cc 85 3f
       1.0519265 1.0677394 1.0452329 1.0452894
0000a0 11 48 87 3f 50 12 92 3f ce 02 b1 3f 55 91 83 3f
       1.0568868 1.1411839 1.3828981 1.0278727
0000b0 db 28 bc 3f 37 37 86 3f 33 e2 8f 3f 1f f4 c8 3f
       1.4699968 1.04856 1.1240906 1.56995
0000c0 79 39 92 3f 78 68 b6 3f 1c 45 90 3f 4e bd 85 3f
       1.1423789 1.4250631 1.127109 1.0448396
0000d0 df 17 89 3f 48 0d 9c 3f c4 8a 86 3f 36 32 c8 3f
       1.071041 1.2191553 1.0511098 1.5640323
0000e0 74 1e 9d 3f 77 df 88 3f 23 e1 90 3f d2 68 d5 3f
       1.2274919 1.0693196 1.1318706 1.6672614
0000f0 85 9e 8e 3f 11 66 86 3f ca 72 8c 3f a7 73 8f 3f
       1.1142126 1.0499898 1.0972531 1.1207169

batch2.bias f4 [64]
000000 37 70 d9 bd 3e 0c 4c be 98 6e 7f bd b8 01 c2 bd
       -0.106171064 -0.19926545 -0.06236133 -0.09472984
000010 81 78 e5 bd 2b 65 d9 bd 0f 06 c8 bc 7b c5 b9 bd
       -0.11204625 -0.106149994 -0.024416951 -0.090708695
000020 68 82 4f be 5f e1 b8 bd 66 f2 0a bd d3 0f 14 be
       -0.2026459 -0.09027361 -0.033922575 -0.14459161
000030 e4 e6 3f be 77 91 00 be 42 a5 3c be f6 af c5 bd
       -0.18740422 -0.1255549 -0.18422416 -0.096527025
000040 c4 64 91 3c 96 7f 47 be 60 3e 47 bd f6 22 49 be
       0.017748244 -0.19482264 -0.04864347 -0.19642243
000050 b9 dc f9 bd 83 08 2b be 3e 7a d6 bd 12 42 b7 bd
       -0.12200303 -0.16702466 -0.104725346 -0.08948149
000060 61 85 a2 bd a7 1d 4d be 34 d8 09 bd 7c bb 0f be
       -0.07935596 -0.20030843 -0.033653453 -0.14036363
000070 33 fc 00 be 6d 96 1e be fa 0e 56 be 9a 76 48 be
       -0.12596206 -0.1548707 -0.2090415 -0.19576493
000080 2c ba 25 be 9c 2a 89 bd 1c ef 38 be e6 95 92 3e
       -0.161843 -0.0669758 -0.18059963 0.28629988
000090 16 5e 49 be 09 7b 47 be 44 fc 5b be d7 0d 57 be
       -0.19664797 -0.19480528 -0.2148295 -0.21001373
0000a0 fa 41 27 be ad d7 e3 bd 97 03 0c bd 17 23 7e be
       -0.16333762 -0.11125121 -0.03418311 -0.24818073
0000b0 34 a7 b2 3c 26 4d 55 be 6a 04 ee bd 06 8b 1b 3e
       0.021808244 -0.20830211 -0.11621936 0.15189752
0000c0 09 9c de bd 3e db 3e bd a7 94 dc bd 64 b7 52 be
       -0.10869605 -0.046595804 -0.10770541 -0.2057777
0000d0 0f 84 fe bd 62 87 c3 bd 44 b5 31 be 4f 61 f3 3d
       -0.12427532 -0.095473066 -0.17354304 0.118837945
0000e0 8a ac 11 be 7a 45 05 be 4d 12 a7 bd 2c d6 83 3e
       -0.14225975 -0.13014784 -0.081577875 0.25749338
0000f0 55 f6 1e bd 75 07 cd be 69 42 5f bd 49 9b 0b be
       -0.03880914 -0.40044752 -0.054506693 -0.13633455

batch2.running_mean f4 [64]
000000 6e 98 01 bf 7c 67 43 bf 82 f5 06 bf 17 2c 94 bd
       -0.50623214 -0.7632978 -0.52718365 -0.07234972
000010 fa 01 16 3e 9e c8 b5 3e b2 1d 4f be ca fc f9 be
       0.14649191 0.3550462 -0.20226172 -0.48825675
000020 b2 48 48 bf e1 d0 05 3f bf 78 ce be ec 70 16 bf
       -0.78235924 0.5227185 -0.40326497 -0.58766055
000030 1e 55 eb 3e 31 20 4b be de d3 6f bf cd c0 48 bf
       0.45963377 -0.19836499 -0.9368266 -0.7841919
000040 4c 1c 60 3e 7c 73 51 3d 3c c6 04 bd 88 9b 83 bf
       0.21885794 0.051135525 -0.032415614 -1.0281839
000050 ae c5 8f 3f 33 91 02 bd 1a fa bd be c3 71 be be
       1.1232202 -0.031876754 -0.37104875 -0.37196168
000060 bf 5d 80 3e 98 4f 85 be 43 03 c7 3d 69 bb 6b 3f
       0.25071523 -0.26037288 0.09717419 0.9208284
000070 55 71 80 3f 7d 96 39 bf e2 18 71 bf fd bf 20 3f
       1.0034586 -0.7249525 -0.94178593 0.6279295
000080 a3 97 ee be d0 f2 a0 be 62 e3 39 bf 3b 74 83 be
       -0.46600065 -0.3143525 -0.72612584 -0.25674614
000090 0f 20 58 bf 4b e7 48 bf 05 d1 5f bf 2a ce 16 bf
       -0.8442392 -0.78477925 -0.87428313 -0.5890833
0000a0 fd 9f a7 be dc d2 5c 3e 1b 95 2a ba 6a 19 ef be
       -0.3273925 0.21564811 -0.0006507204 -0.46699077
0000b0 7c df 2b 3d c6 58 18 bf 4a cd 86 be e3 63 60 be
       0.04196118 -0.5951046 -0.26328498 -0.21913104
0000c0 28 bd 9a bc 01 b6 5b 3d ee e8 f8 be 22 18 83 bf
       -0.018889025 0.05364037 -0.4861521 -1.024174
0000d0 94 57 0e bf 40 c7 4d bd 6a 81 0c bf 79 79 88 bc
       -0.55602384 -0.050238848 -0.5488497 -0.016659485
0000e0 7c b1 4d 3e 4b 65 50 be 56 e0 03 be 49 9b 6c bd
       0.20087236 -0.2035114 -0.12878546 -0.05776528
0000f0 f7 c9 5a be b8 9c 87 3f ce 91 fb be b8 7b 3a bf
       -0.21366106 1.0594702 -0.49134678 -0.7284503

batch2.running_var f4 [64]
000000 69 d6 b1 3f 37 a3 ef 3f 62 e9 90 3f 62 79 18 3f
       1.3893558 1.8721684 1.1321223 0.59560215
000010 f0 50 32 3f 6f ad 5e 3f a8 59 2c 3f 89 92 30 3f
       0.6965475 0.8698339 0.67324305 0.68973595
000020 68 1d 08 40 e6 57 9a 3f ee d6 11 3f 43 e4 91 3f
       2.1267948 1.2058074 0.5696858 1.1397785
000030 f4 dc 44 3f ec 47 22 3f e2 60 f7 3f 16 9b c2 3f
       0.7689965 0.63390994 1.9326441 1.5203578
000040 bd 18 a0 3e ac 32 2f 3f 06 e3 6f 3f 31 99 1c 40
       0.31268874 0.68436694 0.93705785 2.44685
000050 76 5a 8b 3f ee 11 02 3f c8 1a 32 3f bf 6a 39 3f
       1.0886981 0.5080861 0.69572115 0.72428507
000060 54 12 b9 3e cd 4c b0 3f be 03 68 3e 65 47 5a 3f
       0.36146796 1.3773438 0.22657678 0.8526519
000070 d7 89 6e 3f ae d7 bf 3f de 2c d0 3f 30 57 7a 3f
       0.93179077 1.4987695 1.6263692 0.9778929
000080 3a cb 90 3f 42 0c 9e 3f ad 8a 0b 40 c6 56 2b 3e
       1.131202 1.2347491 2.180339 0.1673232
000090 d5 13 05 40 3e e7 9c 3f 84 2b 0c 40 07 4d c1 3f
       2.0793355 1.225807 2.190156 1.5101632
0000a0 2a ee 4b 3f 48 0c 8b 3f 7b 59 73 3e 38 96 73 3f
       0.79660285 1.0863123 0.23764603 0.9515109
0000b0 bb d1 98 3e eb b7 a5 3f b0 5c 95 3f a3 bf 35 3e
       0.29847512 1.2946752 1.1668911 0.17748885
0000c0 fc f0 42 3f 28 82 93 3e 3b 0b 8b 3f b4 6b 16 40
       0.7614896 0.2881024 1.0862802 2.3503237
0000d0 29 67 9f 3f b2 ce 2c 3f 2b 09 6c 3f 9e e2 78 3e
       1.2453357 0.6750289 0.9220149 0.24305198
0000e0 78 60 13 3f 4a 5b 13 3f a5 4e 3e 3f fd 61 19 3e
       0.57569075 0.5756117 0.7433875 0.14978786
0000f0 27 23 72 3f 5d 38 7a 3f 6d 94 89 3f 10 ce fa 3f
       0.9458489 0.97742254 1.0748421 1.9594135

fc1.weight f4 [1, 576]
000000 43 f8 fa bd 3f e4 a4 bd 6f 2f a3 bb cc bd 03 be
       -0.122543834 -0.08051347 -0.0049800198 -0.1286537
000010 8e 64 88 bd cd a9 4b bd 26 07 6f bd 6a e0 35 bd
       -0.06659804 -0.04972248 -0.058356427 -0.04440347
000020 83 77 ab bd 19 7d 01 3e 50 b0 f1 3d e9 b3 37 3c
       -0.083724044 0.12645377 0.11801207 0.0112123275
000030 af fd 02 3d ac 2f c8 3c c6 ad 00 3e 42 1f 8f bc
       0.031980213 0.024436794 0.1256629 -0.01747096
000040 1b db 61 3d 9e 91 23 3e c2 57 fa bd 60 8e 0d bd
       0.055140596 0.15973517 -0.1222377 -0.034559608
000050 b5 ce 01 be 3d f2 12 bd 40 50 2b be 7f a9 29 bd
       -0.12676509 -0.035875548 -0.16729832 -0.04142141
000060 c6 13 52 bc c3 de aa bc 1f 76 9e bd e4 bc 2e bd
       -0.012822097 -0.020858174 -0.077373736 -0.04266061
000070 8a d5 9f bd 0f d3 6e bd 36 da 99 bd c8 b8 2a 3b
       -0.07804401 -0.05830675 -0.075123236 0.002605008
000080 c0 2f 67 be 4f 67 bd bd cb b4 e4 bd f0 96 cf 3d
       -0.22576809 -0.0924822 -0.11167296 0.10136211
000090 e1 72 43 be c8 3e 28 bd 6e 14 c6 bd eb 10 0d be
       -0.19086792 -0.041075498 -0.096718654 -0.13775985
0000a0 da 6c c9 bd dc e1 14 be 26 29 fd 3a e8 6f d5 bd
       -0.09835215 -0.14539284 0.0019314631 -0.10421735
0000b0 c7 66 83 3d 7e ea 65 be 8c d5 9c bd 29 9a c8 bd
       0.064160876 -0.22452733 -0.07657918 -0.09795029
0000c0 2f 4d 9d bd 0d 86 9c bd 43 d9 f7 bd a2 6b d0 bd
       -0.07680737 -0.07642756 -0.12101986 -0.10176779
0000d0 32 25 b7 bd 75 28 32 3d 99 8c d5 bb e1 1e 5d bd
       -0.08942641 0.043495614 -0.0065170047 -0.053984527
0000e0 bf 8e 07 3e 81 55 3a be fd 11 89 3c 63 76 42 be
       0.13238047 -0.1819668 0.01673221 -0.18990473
0000f0 e5 3a a4 3d 09 df f9 bd 9e a3 02 be e0 76 2d 3d
       0.08019046 -0.12200744 -0.12757728 0.042349696
000100 a8 c9 67 bd d2 c7 5a bb aa a6 28 be c3 9a 3e bd
       -0.0565888 -0.0033383262 -0.16469827 -0.04653431
000110 97 4c ad bd 9a a1 c6 bd d6 ed 54 3d cb 60 29 be
       -0.08461874 -0.09698792 0.05198463 -0.1654083
000120 69 86 bb 3d ac c7 17 bb f0 27 60 3d 42 68 3d 3d
       0.09156496 -0.0023159785 0.054725587 0.046242006
000130 ba a5 1e 3e 02 35 99 3d 35 be a0 3d d6 93 8a 3b
       0.15492907 0.074808136 0.07848779 0.004229049
000140 18 4e 1b 3e 19 b4 e1 bd 2c 7a 8c 3c fa 94 f0 bd
       0.15166509 -0.11020679 0.0171481 -0.11747165
000150 18 f9 c0 bd bc 9b a5 bd a1 f8 80 bd 9d e9 b5 bd
       -0.09422511 -0.080863446 -0.06297422 -0.08882449
000160 24 59 38 bd f1 2a e0 bd b4 75 72 bb 11 30 95 bd
       -0.045006886 -0.109456904 -0.0036996426 -0.072845586
000170 65 66 8a 3d 59 77 70 be 39 7a 44 bd 48 58 09 be
       0.067578115 -0.23483028 -0.047968123 -0.13412583
000180 a0 7e b1 bc 64 20 1e be 2e 66 db 3d dd 05 e5 3b
       -0.021666825 -0.15442044 0.107128486 0.0069892243
000190 48 91 49 3c f3 88 e1 3d d6 52 e7 bc 8f b7 08 3d
       0.012302704 0.11012449 -0.028237741 0.03337818
0001a0 29 8d 80 3d 48 49 ca 3d 29 72 5f 3d 38 48 23 3e
       0.06276924 0.098772585 0.05455223 0.15945518
0001b0 15 f7 7c 3d 86 9d b9 bc f6 5e 2b 3b d1 1e 29 3d
       0.061759073 -0.02265812 0.002614913 0.041289154
0001c0 f9 d7 61 3c 45 49 a9 3d 3b b8 00 3d f4 92 1b 3e
       0.013784402 0.08265928 0.031425696 0.15192777
0001d0 d4 b7 37 3e 3d 7a 41 be 5e 1c 3d bd 0b d2 ce 3c
       0.17941219 -0.18894286 -0.04616963 0.02524664
0001e0 9e 06 e4 bd 93 03 1b bd 47 f0 77 bd ca 44 25 bd
       -0.11134075 -0.037845206 -0.06053188 -0.040348805
0001f0 d7 11 4c bd 84 00 f2 bc e1 a3 ff 3c 4d b3 a6 3d
       -0.0498217 -0.029541261 0.031206073 0.08139668
000200 84 70 ae 3d 63 0a d9 3d c8 da 65 bc fb 82 8e 3d
       0.085175544 0.10597684 -0.014029212 0.06958576
000210 c9 b9 86 3c 7a 16 ad 3d 63 92 39 3e 20 b5 ec bc
       0.016446011 0.08451553 0.18122248 -0.02889496
000220 eb 0a 8d 3d e4 6f 30 3d 23 8e 14 3e 8a 59 fb bc
       0.06886848 0.043075457 0.14507346 -0.030682344
000230 b4 03 9e 3d ce 66 a3 bd 4a d4 11 3e 32 a9 75 3d
       0.0771555 -0.07978593 0.14241138 0.05997581
000240 e5 cd e2 bd 29 19 07 3e da 93 4b be b9 7b 1b 3e
       -0.110744275 0.13193192 -0.1988062 0.15183915
000250 eb eb 3a be 69 85 39 3e 80 d4 68 be 77 77 37 3d
       -0.18254058 0.18117298 -0.22737312 0.044791665
000260 ae 4c 56 be 53 5f bb 3d 14 1f 3a be 68 f8 31 bd
       -0.20927688 0.09149041 -0.18175918 -0.04344979
000270 bf db e1 bd 4f 61 17 3d fd 1b e7 bd ae 9f b3 bd
       -0.11028241 0.036958035 -0.11284635 -0.08770691
000280 09 fa a0 bd 75 c3 10 be 83 12 91 bd 00 22 a2 bc
       -0.078601904 -0.14137061 -0.07083609 -0.019791603
000290 b5 1c 26 3c db 32 01 be 25 24 b1 3d 64 7c 2e be
       0.01013868 -0.12617056 0.08649472 -0.17039639
0002a0 c9 fb bf 3c cd 6c 02 be 8a c4 4c be 91 1e 1b 3e
       0.02343549 -0.12736817 -0.19996849 0.15148379
0002b0 6d cc 14 bd a9 af 9a 3d 71 cb c4 3d 65 49 ac 3d
       -0.036327768 0.07553036 0.09609116 0.084124364
0002c0 fe 4c bc 3d a4 fc f2 3c 66 4a 59 3d 9d 3a b9 3d
       0.091943726 0.029661484 0.053049468 0.09044383
0002d0 fc d5 d3 bd e4 b9 32 bd 9f 60 fe bb b8 7e 16 be
       -0.10343549 -0.04363431 -0.007762983 -0.14696777
0002e0 a2 c3 83 3c 2a a8 cc bd 08 e4 9d bd d9 c0 fa bd
       0.016084496 -0.09993012 -0.07709509 -0.12243814
0002f0 5e 29 36 be 07 ba 05 3e a4 b1 a0 3d 46 37 82 bd
       -0.17789218 0.13059245 0.07846382 -0.06358199
000300 8d 7d d0 3d 35 f5 ca bd ff 44 11 3e 50 5e 9c bd
       0.10180197 -0.09910051 0.14186476 -0.07635176
000310 4d a9 74 3e 38 65 08 be 53 e2 28 be 3e d8 eb bc
       0.23892708 -0.13319862 -0.16492586 -0.028789636
000320 6e 3f de bd fc 07 1a be e4 9c 16 bd ad eb 1f 3d
       -0.10851942 -0.15042108 -0.036770716 0.039043117
000330 f0 1b 83 3b 6a a3 08 3e 0a 29 fe bd a9 17 4e bb
       0.004001133 0.13343588 -0.12410171 -0.0031447208
000340 1c b5 23 be 5a 28 4e bd 5f 17 5a be 87 6c a2 bd
       -0.15987056 -0.05033145 -0.21297978 -0.07930856
000350 11 c0 60 3d 32 02 08 be 6f 09 b6 3d 67 05 67 bd
       0.05487067 -0.13282087 0.08888518 -0.056401636
000360 a0 3f 85 be 15 c2 a2 bd 32 b9 85 3c ab c7 c4 bd
       -0.26025105 -0.079471745 0.01632366 -0.09608396
000370 77 c0 c8 bd cf 42 86 bc 6c 55 94 3b c2 91 72 3e
       -0.09802335 -0.016389279 0.0045267846 0.23688415
000380 97 f0 02 be 16 c4 04 3e 42 b7 b3 bc d5 4d 14 3e
       -0.1278709 0.12965426 -0.02193797 0.14482816
000390 13 9a c8 3d 21 d5 3e 3d 0c f0 9d 3d 4f 9e 0f bc
       0.09795012 0.046589974 0.07711801 -0.008765771
0003a0 77 c6 de 3d 06 c6 a8 3d c0 af 52 3e eb 3e fe bd
       0.10877698 0.08240895 0.20574856 -0.124143444
0003b0 82 99 5f 3e 27 cc 72 be de 7a 58 3d c1 43 96 bd
       0.21835902 -0.2371069 0.05285155 -0.07337142
0003c0 43 fe 51 3d e8 34 94 3d f7 cc 87 3d 1d 40 92 be
       0.051267873 0.072366536 0.06630891 -0.2856454
0003d0 ed 77 00 bd 46 92 22 be 2f 24 9e bd 1f 29 90 bd
       -0.03136437 -0.15876111 -0.07721745 -0.07039093
0003e0 48 68 04 be 2d f0 58 3d 49 82 df bd f0 06 bd bc
       -0.12930405 0.052963424 -0.10913522 -0.023074597
0003f0 d2 69 63 be c7 68 bb 3c 6f b8 77 be 4a 7f 5a bd
       -0.22208336 0.02287711 -0.2419145 -0.05334405
